…
ctivation=&quot;relu&quot;) %&gt;% layer_dense(units=64, activation = &quot;relu&quot;) %&gt;% layer_dense(units=32) %&gt;% layer_dense(units=16) %&gt;% layer_dense(units=1, activation = &quot;linear&quot;) model %&gt;% compile(loss = &#39;mse&#39;, optimizer = &#39;adam&#39;, metrics = list(&quot;mean_absolute_error&quot;) ) %&gt;% summary() ## Model: &quot;sequential_1&quot; ## ________________________________________________________________________________ ## Layer (type) Output Shape Param # ## ================================================================================ ## lstm (LSTM) (None, 128) 69120 ## dense_4 (Dense) (None, 64) 8256 ## dense_3 (Dense) (None, 32) 2080 ## dense_2 (Dense) (None, 16) 528 ## dense_1 (Dense) (None, 1) 17 ## ================================================================================ ## Total params: 80,001 ## Trainable params: 80,001 ## Non-trainable params: 0 ## ________________________________________________________________________________ model %&gt;% fit(X[[1]][train,, ], y[[1]][train], batch_size = 12, epochs = 75, validation_data = list(X[[1]][test,, ], y[[1]][test]), verbose = 0 ) %&g
…
